…
Exp.Train:: time 2021-04-08 10:19:41,742 | step 98500 | loss(JSD) 0.349 (0.581)
Exp.Train:: time 2021-04-08 10:22:08,359 | step 99000 | loss(JSD) 0.358 (0.636)
Exp.Train:: time 2021-04-08 10:24:35,051 | step 99500 | loss(JSD) 0.354 (0.474)
Exp.Train:: time 2021-04-08 10:27:01,595 | step 100000 | loss(JSD) 0.361 (0.314)

Exp.Eval:: time 2021-04-08 10:27:50,202 | step 100000 | IS 5.335 | FID 35.242 | cp 1.325 | cq 0.042
Exp:: time 2021-04-08 10:27:50,227 | Final Evaluation
Exp:: time 2021-04-08 10:28:37,963 | step 100000 | IS 5.250 | FID 34.526 | cp 1.325 | cq 0.029

** cifar jsd 3
Exp:: time 2021-04-08 14:21:37,152 | Generator:
Generator(
  (decoder): Sequential(
    (0): ConvTranspose2d(100, 512, kernel_size=(4, 4), stride=(1, 1))
    (1): BatchNorm2d(512, eps=1e-05, momentum=0.1, affine=True, track_running_stats=True)
    (2): ReLU(inplace=True)
    (3): ResBlock(
      (block): Sequential(
        (0): Conv2d(512, 512, kernel_size=(3, 3), stride=(1, 1), padding=(1, 1))
        (1): BatchNorm2d(512, eps=1e-05, momentum=0.1, affine=True, track_running_stats=True)
        (2): ReLU(inplace=True)
        (3): Conv2d(512, 512, kernel_size=(1, 1), stride=(1, 1))
        (4): BatchNorm2d(512, eps=1e-05, momentum=0.1, affine=True, track_running_stats=True)
        (5): ReLU(inplace=True)
      )
    )
    (4): ConvTranspose2d(512, 256, kernel_size=(4, 4), stride=(2, 2), padding=(1, 1))
    (5): BatchNorm2d(256, eps=1e-05, momentum=0.1, affine=True, track_running_stats=True)
    (6): ReLU(inplace=True)
    (7): ResBlock(
      (block): Sequential(
        (0): Conv2d(256, 256, kernel_size=(3, 3), stride=(1, 1), padding=(1, 1))
        (1): BatchNorm2d(256, eps=1e-05, momentum=0.1, affine=True, track_running_stats=True)
        (2): ReLU(inplace=True)
        (3): Conv2d(256, 256, kernel_size=(1, 1), stride=(1, 1))
        (4): BatchNorm2d(256, eps=1e-05, momentum=0.1, affine=True, track_running_stats=True)
        (5): ReLU(inplace=True)
      )
    )
    (8): ConvTranspose2d(256, 128, kernel_size=(4, 4), stride=(2, 2), padding=(1, 1))
    (9): BatchNorm2d(128, eps=1e-05, momentum=0.1, affine=True, track_running_stats=True)
    (10): ReLU(inplace=True)
    (11): ResBlock(
      (block): Sequential(
        (0): Conv2d(128, 128, kernel_size=(3, 3), stride=(1, 1), padding=(1, 1))
        (1): BatchNorm2d(128, eps=1e-05, momentum=0.1, affine=True, track_running_stats=True)
        (2): ReLU(inplace=True)
        (3): Conv2d(128, 128, kernel_size=(1, 1), stride=(1, 1))
        (4): BatchNorm2d(128, eps=1e-05, momentum=0.1, affine=True, track_running_stats=True)
        (5): ReLU(inplace=True)
      )
    )
    (12): ConvTranspose2d(128, 3, kernel_size=(4, 4), stride=(2, 2), padding=(1, 1))
    (13): Tanh()
  )
)
Exp:: time 2021-04-08 14:21:37,269 | Critic:
Critic(
  (encoder): Sequential(
    (0): Conv2d(3, 128, kernel_size=(4, 4), stride=(2, 2), padding=(1, 1))
    (1): LeakyReLU(negative_slope=0.2, inplace=True)
    (2): ResBlock(
      (block): Sequential(
        (0): Conv2d(128, 128, kernel_size=(3, 3), stride=(1, 1), padding=(1, 1))
        (1): LeakyReLU(negative_slope=0.2, inplace=True)
        (2): Conv2d(128, 128, kernel_size=(1, 1), stride=(1, 1))
        (3): LeakyReLU(negative_slope=0.2, inplace=True)
      )
    )
    (3): Conv2d(128, 256, kernel_size=(4, 4), stride=(2, 2), padding=(1, 1))
    (4): LeakyReLU(negative_slope=0.2, inplace=True)
    (5): ResBlock(
      (block): Sequential(
        (0): Conv2d(256, 256, kernel_size=(3, 3), stride=(1, 1), padding=(1, 1))
        (1): LeakyReLU(negative_slope=0.2, inplace=True)
        (2): Conv2d(256, 256, kernel_size=(1, 1), stride=(1, 1))
        (3): LeakyReLU(negative_slope=0.2, inplace=True)
      )
    )
    (6): Conv2d(256, 512, kernel_size=(4, 4), stride=(2, 2), padding=(1, 1))
    (7): LeakyReLU(negative_slope=0.2, inplace=True)
    (8): ResBlock(
      (block): Sequential(
        (0): Conv2d(512, 512, kernel_size=(3, 3), stride=(1, 1), padding=(1, 1))
        (1): LeakyReLU(negative_slope=0.2, inplace=True)
        (2): Conv2d(512, 512, kernel_size=(1, 1), stride=(1, 1))
        (3): LeakyReLU(negative_slope=0.2, inplace=True)
      )
    )
    (9): Conv2d(512, 1, kernel_size=(4, 4), stride=(1, 1))
  )
)
Exp:: time 2021-04-08 14:21:37,942 | Training
Exp.Train:: time 2021-04-08 14:24:53,985 | step 500 | loss(JSD) 0.653 (0.692)
Exp.Train:: time 2021-04-08 14:28:07,037 | step 1000 | loss(JSD) 0.659 (0.693)
Exp.Train:: time 2021-04-08 14:31:20,069 | step 1500 | loss(JSD) 0.693 (0.693)
Exp.Train:: time 2021-04-08 14:34:47,478 | step 2000 | loss(JSD) 0.692 (0.693)
…
